

Simulation run on: 2023-02-19 15:04:29.669162


Data reading complete!
Number of train batches:   20
Number of validation batches:    3
DeepTrans(
  (word2vec): Embedding(1359, 64)
  (user_conv): transModel(
    (transformer): TransformerEncoder(
      (layers): ModuleList(
        (0): TransformerEncoderLayer(
          (self_attn): MultiheadAttention(
            (out_proj): NonDynamicallyQuantizableLinear(in_features=64, out_features=64, bias=True)
          )
          (linear1): Linear(in_features=64, out_features=2048, bias=True)
          (dropout): Dropout(p=0.1, inplace=False)
          (linear2): Linear(in_features=2048, out_features=64, bias=True)
          (norm1): LayerNorm((64,), eps=1e-05, elementwise_affine=True)
          (norm2): LayerNorm((64,), eps=1e-05, elementwise_affine=True)
          (dropout1): Dropout(p=0.1, inplace=False)
          (dropout2): Dropout(p=0.1, inplace=False)
        )
      )
    )
    (fc): Linear(in_features=64, out_features=10, bias=True)
  )
  (item_conv): transModel(
    (transformer): TransformerEncoder(
      (layers): ModuleList(
        (0): TransformerEncoderLayer(
          (self_attn): MultiheadAttention(
            (out_proj): NonDynamicallyQuantizableLinear(in_features=64, out_features=64, bias=True)
          )
          (linear1): Linear(in_features=64, out_features=2048, bias=True)
          (dropout): Dropout(p=0.1, inplace=False)
          (linear2): Linear(in_features=2048, out_features=64, bias=True)
          (norm1): LayerNorm((64,), eps=1e-05, elementwise_affine=True)
          (norm2): LayerNorm((64,), eps=1e-05, elementwise_affine=True)
          (dropout1): Dropout(p=0.1, inplace=False)
          (dropout2): Dropout(p=0.1, inplace=False)
        )
      )
    )
    (fc): Linear(in_features=64, out_features=10, bias=True)
  )
  (final): Sequential(
    (0): Linear(in_features=20, out_features=10, bias=True)
    (1): ReLU()
    (2): Dropout(p=0.6, inplace=False)
    (3): Linear(in_features=10, out_features=1, bias=True)
  )
  (fm): TorchFM(
    (lin): Linear(in_features=20, out_features=1, bias=True)
  )
  (dropout): Dropout(p=0.6, inplace=False)
  (relu): ReLU()
)

Model Built!
Starting Training...



Simulation run on: 2023-02-19 15:06:44.670818


Data reading complete!
Number of train batches:   20
Number of validation batches:    3
DeepTrans(
  (word2vec): Embedding(1359, 64)
  (user_conv): transModel(
    (transformer): TransformerEncoder(
      (layers): ModuleList(
        (0): TransformerEncoderLayer(
          (self_attn): MultiheadAttention(
            (out_proj): NonDynamicallyQuantizableLinear(in_features=64, out_features=64, bias=True)
          )
          (linear1): Linear(in_features=64, out_features=2048, bias=True)
          (dropout): Dropout(p=0.1, inplace=False)
          (linear2): Linear(in_features=2048, out_features=64, bias=True)
          (norm1): LayerNorm((64,), eps=1e-05, elementwise_affine=True)
          (norm2): LayerNorm((64,), eps=1e-05, elementwise_affine=True)
          (dropout1): Dropout(p=0.1, inplace=False)
          (dropout2): Dropout(p=0.1, inplace=False)
        )
      )
    )
    (fc): Linear(in_features=64, out_features=10, bias=True)
  )
  (item_conv): transModel(
    (transformer): TransformerEncoder(
      (layers): ModuleList(
        (0): TransformerEncoderLayer(
          (self_attn): MultiheadAttention(
            (out_proj): NonDynamicallyQuantizableLinear(in_features=64, out_features=64, bias=True)
          )
          (linear1): Linear(in_features=64, out_features=2048, bias=True)
          (dropout): Dropout(p=0.1, inplace=False)
          (linear2): Linear(in_features=2048, out_features=64, bias=True)
          (norm1): LayerNorm((64,), eps=1e-05, elementwise_affine=True)
          (norm2): LayerNorm((64,), eps=1e-05, elementwise_affine=True)
          (dropout1): Dropout(p=0.1, inplace=False)
          (dropout2): Dropout(p=0.1, inplace=False)
        )
      )
    )
    (fc): Linear(in_features=64, out_features=10, bias=True)
  )
  (final): Sequential(
    (0): Linear(in_features=20, out_features=10, bias=True)
    (1): ReLU()
    (2): Dropout(p=0.6, inplace=False)
    (3): Linear(in_features=10, out_features=1, bias=True)
  )
  (fm): TorchFM(
    (lin): Linear(in_features=20, out_features=1, bias=True)
  )
  (dropout): Dropout(p=0.6, inplace=False)
  (relu): ReLU()
)

Model Built!
Starting Training...



Simulation run on: 2023-02-19 15:10:40.584934


Data reading complete!
Number of train batches:   20
Number of validation batches:    3
DeepTrans(
  (word2vec): Embedding(1359, 64)
  (user_conv): transModel(
    (transformer): TransformerEncoder(
      (layers): ModuleList(
        (0): TransformerEncoderLayer(
          (self_attn): MultiheadAttention(
            (out_proj): NonDynamicallyQuantizableLinear(in_features=64, out_features=64, bias=True)
          )
          (linear1): Linear(in_features=64, out_features=2048, bias=True)
          (dropout): Dropout(p=0.1, inplace=False)
          (linear2): Linear(in_features=2048, out_features=64, bias=True)
          (norm1): LayerNorm((64,), eps=1e-05, elementwise_affine=True)
          (norm2): LayerNorm((64,), eps=1e-05, elementwise_affine=True)
          (dropout1): Dropout(p=0.1, inplace=False)
          (dropout2): Dropout(p=0.1, inplace=False)
        )
      )
    )
    (fc): Linear(in_features=64, out_features=10, bias=True)
  )
  (item_conv): transModel(
    (transformer): TransformerEncoder(
      (layers): ModuleList(
        (0): TransformerEncoderLayer(
          (self_attn): MultiheadAttention(
            (out_proj): NonDynamicallyQuantizableLinear(in_features=64, out_features=64, bias=True)
          )
          (linear1): Linear(in_features=64, out_features=2048, bias=True)
          (dropout): Dropout(p=0.1, inplace=False)
          (linear2): Linear(in_features=2048, out_features=64, bias=True)
          (norm1): LayerNorm((64,), eps=1e-05, elementwise_affine=True)
          (norm2): LayerNorm((64,), eps=1e-05, elementwise_affine=True)
          (dropout1): Dropout(p=0.1, inplace=False)
          (dropout2): Dropout(p=0.1, inplace=False)
        )
      )
    )
    (fc): Linear(in_features=64, out_features=10, bias=True)
  )
  (final): Sequential(
    (0): Linear(in_features=20, out_features=10, bias=True)
    (1): ReLU()
    (2): Dropout(p=0.6, inplace=False)
    (3): Linear(in_features=10, out_features=1, bias=True)
  )
  (fm): TorchFM(
    (lin): Linear(in_features=20, out_features=1, bias=True)
  )
  (dropout): Dropout(p=0.6, inplace=False)
  (relu): ReLU()
)

Model Built!
Starting Training...

-----------------------------------------------------------------------------------------
| end of epoch 1 | time:  9.46s | MSE = 2.0142 | dataset = Amazon (VAL)
-----------------------------------------------------------------------------------------
-----------------------------------------------------------------------------------------
| end of epoch 2 | time:  6.51s | MSE = 1.1971 | dataset = Amazon (VAL)
-----------------------------------------------------------------------------------------
-----------------------------------------------------------------------------------------
| end of epoch final | time: 16.56s | MSE = 1.1041 (TEST)
-----------------------------------------------------------------------------------------


Simulation run on: 2023-02-19 15:21:01.067806


Data reading complete!
Number of train batches:   20
Number of validation batches:    3
DeepTrans(
  (word2vec): Embedding(1359, 64)
  (user_conv): transModel(
    (transformer): TransformerEncoder(
      (layers): ModuleList(
        (0): TransformerEncoderLayer(
          (self_attn): MultiheadAttention(
            (out_proj): NonDynamicallyQuantizableLinear(in_features=64, out_features=64, bias=True)
          )
          (linear1): Linear(in_features=64, out_features=2048, bias=True)
          (dropout): Dropout(p=0.1, inplace=False)
          (linear2): Linear(in_features=2048, out_features=64, bias=True)
          (norm1): LayerNorm((64,), eps=1e-05, elementwise_affine=True)
          (norm2): LayerNorm((64,), eps=1e-05, elementwise_affine=True)
          (dropout1): Dropout(p=0.1, inplace=False)
          (dropout2): Dropout(p=0.1, inplace=False)
        )
      )
    )
    (fc): Linear(in_features=64, out_features=10, bias=True)
  )
  (item_conv): transModel(
    (transformer): TransformerEncoder(
      (layers): ModuleList(
        (0): TransformerEncoderLayer(
          (self_attn): MultiheadAttention(
            (out_proj): NonDynamicallyQuantizableLinear(in_features=64, out_features=64, bias=True)
          )
          (linear1): Linear(in_features=64, out_features=2048, bias=True)
          (dropout): Dropout(p=0.1, inplace=False)
          (linear2): Linear(in_features=2048, out_features=64, bias=True)
          (norm1): LayerNorm((64,), eps=1e-05, elementwise_affine=True)
          (norm2): LayerNorm((64,), eps=1e-05, elementwise_affine=True)
          (dropout1): Dropout(p=0.1, inplace=False)
          (dropout2): Dropout(p=0.1, inplace=False)
        )
      )
    )
    (fc): Linear(in_features=64, out_features=10, bias=True)
  )
  (final): Sequential(
    (0): Linear(in_features=20, out_features=10, bias=True)
    (1): ReLU()
    (2): Dropout(p=0.6, inplace=False)
    (3): Linear(in_features=10, out_features=1, bias=True)
  )
  (fm): TorchFM(
    (lin): Linear(in_features=20, out_features=1, bias=True)
  )
  (dropout): Dropout(p=0.6, inplace=False)
  (relu): ReLU()
)

Model Built!
Starting Training...

-----------------------------------------------------------------------------------------
| end of epoch 1 | time:  7.04s | MSE = 2.6199 | dataset = Amazon (VAL)
-----------------------------------------------------------------------------------------
-----------------------------------------------------------------------------------------
…
-----------------------------------------------------------------------------------------
| end of epoch 10 | time:  6.61s | MSE = 1.1179 | dataset = Amazon (VAL)
-----------------------------------------------------------------------------------------
-----------------------------------------------------------------------------------------
| end of epoch final | time: 65.99s | MSE = 1.0099 (TEST)
-----------------------------------------------------------------------------------------


Simulation run on: 2023-02-19 15:22:49.967979


Data reading complete!
Number of train batches:   20
Number of validation batches:    3
DeepTrans(
  (word2vec): Embedding(1359, 64)
  (user_conv): transModel(
    (transformer): TransformerEncoder(
      (layers): ModuleList(
        (0): TransformerEncoderLayer(
          (self_attn): MultiheadAttention(
            (out_proj): NonDynamicallyQuantizableLinear(in_features=64, out_features=64, bias=True)
          )
          (linear1): Linear(in_features=64, out_features=2048, bias=True)
          (dropout): Dropout(p=0.1, inplace=False)
          (linear2): Linear(in_features=2048, out_features=64, bias=True)
          (norm1): LayerNorm((64,), eps=1e-05, elementwise_affine=True)
          (norm2): LayerNorm((64,), eps=1e-05, elementwise_affine=True)
          (dropout1): Dropout(p=0.1, inplace=False)
          (dropout2): Dropout(p=0.1, inplace=False)
        )
      )
    )
    (fc): Linear(in_features=64, out_features=20, bias=True)
  )
  (item_conv): transModel(
    (transformer): TransformerEncoder(
      (layers): ModuleList(
        (0): TransformerEncoderLayer(
          (self_attn): MultiheadAttention(
            (out_proj): NonDynamicallyQuantizableLinear(in_features=64, out_features=64, bias=True)
          )
          (linear1): Linear(in_features=64, out_features=2048, bias=True)
          (dropout): Dropout(p=0.1, inplace=False)
          (linear2): Linear(in_features=2048, out_features=64, bias=True)
          (norm1): LayerNorm((64,), eps=1e-05, elementwise_affine=True)
          (norm2): LayerNorm((64,), eps=1e-05, elementwise_affine=True)
          (dropout1): Dropout(p=0.1, inplace=False)
          (dropout2): Dropout(p=0.1, inplace=False)
        )
      )
    )
    (fc): Linear(in_features=64, out_features=20, bias=True)
  )
  (final): Sequential(
    (0): Linear(in_features=40, out_features=20, bias=True)
    (1): ReLU()
    (2): Dropout(p=0.6, inplace=False)
    (3): Linear(in_features=20, out_features=1, bias=True)
  )
  (fm): TorchFM(
    (lin): Linear(in_features=40, out_features=1, bias=True)
  )
  (dropout): Dropout(p=0.6, inplace=False)
  (relu): ReLU()
)

Model Built!
Starting Training...

-----------------------------------------------------------------------------------------
| end of epoch 1 | time:  7.47s | MSE = 7.4563 | dataset = Amazon (VAL)
-----------------------------------------------------------------------------------------
-----------------------------------------------------------------------------------------
…
